inventory/models/sales_forecast_model.pth (torch, 45258 bytes, 5 tensors)

lstm.weight_ih_l0 f4 [200, 1]
0	0xbbeed7a0	-0.007288888
1	0xbd58f259	-0.052965496
2	0xbb8af36f	-0.0042404453
3	0x3de88cbd	0.11354969
4	0xbda82eb6	-0.082120344
5	0x3d523a9d	0.05132543
6	0x3d46b0de	0.048508517
7	0xbcfc5f03	-0.030807024
8	0x3e02245f	0.12709187
9	0x3d2d1552	0.04225666
10	0x3c3a535b	0.011372413
11	0xbcf071ff	-0.029351233
12	0xbd2d8f18	-0.042372793
13	0x3d63078e	0.055427127
14	0xbd4e843c	-0.050419077
15	0xbdcbac07	-0.09944921
16	0x3dbb1555	0.09134928
17	0xbca82e1a	-0.020529795
18	0x3e0c12b7	0.13679014
19	0x3d949d89	0.0725661
20	0x3c2ac3e8	0.010422684
21	0xbd7b4ea2	-0.061354287
22	0x3d85b247	0.06528144
23	0x3ddadc81	0.10686589
24	0x3cfa6954	0.030567802
25	0x3dd241cd	0.10266457
26	0x3c05cb03	0.008166078
27	0xbd9bf846	-0.07615714
28	0xbdb8b972	-0.09019746
29	0xbd8df97d	-0.06932352
30	0x3bce1d39	0.0062901047
31	0xbd98098d	-0.07423697
32	0x3d9ce5ad	0.07660995
33	0x3ba7e4d3	0.0051237135
34	0xbde495a4	-0.11161354
35	0xbdde45b0	-0.108531356
36	0xbd7c6508	-0.06161979
37	0x3e0ef08d	0.1395895
38	0x3c6db4af	0.01450841
39	0xbdab500f	-0.08364879
40	0x3cd35dd9	0.025801586
41	0xbd9326bf	-0.071851246
42	0xbca70003	-0.020385748
43	0x3db7b6f0	0.089704394
44	0xbdf372ce	-0.11887132
45	0x3d145070	0.036209524
46	0xbbde53a1	-0.0067848717
47	0xbd812e9a	-0.06307717
48	0xbd47c704	-0.04877378
49	0xbd085563	-0.033284556
50	0xbde3191f	-0.11088776
51	0xbd6e5f18	-0.058196157
52	0xbe14e18e	-0.14539167
53	0x3e17f808	0.1484071
54	0xbd6cecba	-0.057842948
55	0x3dfc365e	0.12315057
56	0xbe12534b	-0.14289586
57	0xbe074711	-0.13210703
58	0x3e0869bd	0.13321586
59	0xbdd026b5	-0.10163633
60	0x3ca2ae7d	0.019858593
61	0x3d0d534c	0.034503266
62	0x3d278419	0.040897463
63	0x3dd20b13	0.102560185
64	0x3d04a19d	0.03238069
65	0xbd6f10a4	-0.05836548
66	0xbc2780a9	-0.010223546
67	0x3dc8ae90	0.0979892
68	0xbd09a26c	-0.033602163
69	0x3d52d348	0.051471025
70	0xbcd0ebb4	-0.025503017
71	0x3cec32f8	0.028832898
72	0xbc7b799e	-0.01534882
73	0x3d52f3d5	0.051502068
74	0xbd86a9b5	-0.06575338
75	0x3dd28ff5	0.10281364
76	0xbb7a7f9e	-0.0038223038
77	0x3d07401c	0.033020124
78	0xbdc6c4c2	-0.09705497
79	0xbc1071d0	-0.0088161975
80	0xbcf696af	-0.030101148
81	0x3e0521f7	0.13001238
82	0x3d4e3ee1	0.050352935
83	0x3dc7c688	0.09754664
84	0x3dd7f676	0.105450556
85	0xbd6b9c96	-0.05752238
86	0xbb614de8	-0.003437871
87	0xbde85d5e	-0.113459334
88	0xbd85837c	-0.06519219
89	0x3cdceb08	0.02696754
90	0x3d26efbe	0.04075598
91	0xbe0df664	-0.13863522
92	0xbd499a8a	-0.049219646
93	0x3df0c17b	0.117556535
94	0x3d8cd826	0.068771645
95	0xbb0ce568	-0.0021499041
96	0xbd8e154b	-0.06937655
97	0xbbe4c13b	-0.0069810427
98	0xbd9f6742	-0.07783367
99	0xbb9545ca	-0.0045554386
100	0x3db19cc8	0.08672482
101	0x3d980246	0.074223086
102	0x3d8f70e8	0.07003957
103	0xbe0af190	-0.13568711
104	0xbcd16bae	-0.025564041
105	0x3e158bc0	0.14604092
106	0x3bf4202b	0.007450124
107	0x3d5289a1	0.051400784
108	0xbdbb7fd8	-0.09155244
109	0xbb67614d	-0.0035305799
110	0x3d8dca47	0.06923347
111	0x3e1dbbf8	0.15403736
112	0x3e02c6c9	0.12771143
113	0x3cda88d9	0.026676582
114	0x3e039fbc	0.12853903
115	0x3dfb2b20	0.12264085
116	0xbcb38ac0	-0.021916747
117	0x3d146982	0.036233433
118	0x3da608ba	0.08107133
119	0x3ccdd8a2	0.025127713
120	0x3d9da9ca	0.076984
121	0x3d3363f7	0.043796506
122	0xbcbc6788	-0.022998586
123	0xbd9ae9a0	-0.07564092
124	0x3dfbcc11	0.12294782
125	0x3d8c174c	0.06840381
126	0x3da2b270	0.079441905
127	0xbe14efb7	-0.14544569
128	0x3dc520e4	0.09625414
129	0x3d517292	0.051134653
130	0xbd17f8b3	-0.037102412
131	0x3d76d02d	0.060257126
132	0xbd558a5b	-0.0521339
133	0xbd8f68a0	-0.070023775
134	0xbe0e81ec	-0.13916749
135	0x3d2a70d7	0.04161152
136	0xbd8786b0	-0.066174865
137	0x3df4b9ed	0.11949525
138	0x3de0fe57	0.109860115
139	0xbe1e4205	-0.15454872
140	0xbda54adc	-0.08070919
141	0x3d986197	0.07440489
142	0x3dbe80be	0.093018994
143	0x3e17b796	0.14816126
144	0xbe026ab5	-0.12736018
145	0x3d9c2571	0.07624329
146	0xbcf2da9c	-0.029645257
147	0x3e03d675	0.12874778
148	0xbe08dc38	-0.13365257
149	0xbc043108	-0.008068331
150	0x3dc33d94	0.095332295
151	0xbe0facb1	-0.1403072
152	0xbdabf6c3	-0.083966754
153	0xbd502c9b	-0.05082379
154	0xbdd6151e	-0.104532465
155	0x3d385e29	0.045011673
156	0x3cc0fbcb	0.023557564
157	0xbd8efd23	-0.06981876
158	0x3de7666c	0.11298832
159	0xbd67ea94	-0.056620196
160	0x3c98fa17	0.01867394
161	0x3bcdfb28	0.0062860437
162	0xbd29b0c7	-0.041428354
163	0xbda33d8a	-0.07970722
164	0x3d042f70	0.032271802
165	0xbd8ef8fa	-0.06981082
166	0xbd6ff4fb	-0.05858324
167	0xbdf6e867	-0.12056046
168	0x3e0dcf59	0.13848628
169	0x3d14df3b	0.0363457
170	0xbdba0788	-0.09083468
171	0x3e0655e6	0.13118705
172	0xbdf6c496	-0.120492145
173	0x3c3bc0f7	0.011459581
174	0x3d020e48	0.0317519
175	0x3d3eab6b	0.046550196
176	0xbc46d1bd	-0.012134966
177	0x3df34295	0.11877934
178	0xbc980939	-0.018559085
179	0xbce28de8	-0.027655557
180	0x3d8d5951	0.069018014
181	0x3d85fec0	0.0654273
182	0x3ca0acc0	0.019613624
183	0x3d7da664	0.06192626
184	0x3d58c8cf	0.05292588
185	0xbbca27a1	-0.006169275
186	0x3dd82bf5	0.10555259
187	0x3d3f4245	0.04669406
188	0x3d908344	0.07056287
189	0xbd22b1c3	-0.039720308
190	0x3d3dc606	0.046331428
191	0xbdaa77f8	-0.083236635
192	0x3cbe7dec	0.023253404
193	0x3d0d39a3	0.034478795
194	0xbd9c4351	-0.07630027
195	0x3d65d62a	0.056112446
196	0x3cdd7932	0.02703533
197	0x3d6f1152	0.058366127
198	0x3df4af1b	0.11947461
199	0x3da6147c	0.08109376

lstm.weight_hh_l0 f4 [200, 50]
0	0xbd6b09b4	-0.0573823
1	0x3e0fecc3	0.14055161
2	0x3db22535	0.08698503
3	0x3e016102	0.12634662
4	0x3dede9b7	0.11616843
5	0xbdd43f6d	-0.1036366
6	0xbdbab955	-0.091173805
7	0x3db9fd77	0.09081548
8	0x3dd80f85	0.10549835
9	0xbce391a2	-0.027779404
10	0x3dc7499d	0.097308375
11	0x3a9dd044	0.0012040217
12	0x3d8ef3a1	0.06980062
13	0xbdb329f0	-0.08748233
14	0xbd9543e6	-0.07288341
15	0x3da56203	0.08075335
16	0xbcf3c8b2	-0.029758785
17	0x3df0c88a	0.11757
18	0x3d7ef40d	0.062244464
19	0xbb83045e	-0.0039983233
20	0x3d1a64fe	0.03769397
21	0xbd55a2ef	-0.05215734
22	0xbdddf7b9	-0.10838265
23	0xb73c4dd0	-1.122379e-05
24	0xbd96907a	-0.073517755
25	0xbd92c9e9	-0.071674176
26	0x3d0425e7	0.03226271
27	0xbdd13179	-0.10214514
28	0xbd9b26b3	-0.07575741
29	0x3c010e56	0.007876953
30	0x3c8ab504	0.016932018
31	0xbdf85b69	-0.1212681
32	0xbd992a15	-0.0747873
33	0x3e19e72f	0.15029596
34	0xba90682b	-0.0011017373
35	0xbd4822c1	-0.04886127
36	0x3dda1962	0.10649373
37	0xbc916426	-0.01774795
38	0xbc0a550d	-0.008443129
39	0x3df66f68	0.12032968
40	0xbdaea603	-0.08527758
41	0x3dd4418c	0.103640646
42	0x3cb081a7	0.021546198
43	0x3b10430c	0.002201262
44	0x3daddfb3	0.08489933
45	0x3db7bfd2	0.08972134
46	0x3db458ab	0.088059746
47	0xbe082156	-0.13293967
48	0x3e05dd85	0.13072784
49	0x3dfd84ef	0.12378871
50	0x3d5e6571	0.05429596
51	0x3d8d4588	0.06898028
52	0x3d40ffa0	0.047118783
53	0xbd3caf3e	-0.04606556
54	0xbdfa2cce	-0.12215577
55	0x3de95b73	0.11394396
56	0xbde4c320	-0.1117003
57	0xbdb0475a	-0.08607359
58	0xbd3e3301	-0.04643536
59	0xbb8e0c4e	-0.004334963
60	0x3a10f316	0.00055293867
61	0x3e033632	0.12813643
62	0x3c8f6da0	0.017508328
63	0xbdcf945e	-0.10135721
64	0x3dda417c	0.106570214
65	0x3dd5d246	0.10440497
66	0xbdad261f	-0.08454537
67	0xbc6d0810	-0.014467254
68	0x3e0246e3	0.12722354
69	0xbdb183cb	-0.08667716
70	0x3c5e89d0	0.013582662
71	0xbdb5788c	-0.08860883
72	0x3d13c48c	0.036076114
73	0x3df07f2a	0.117430046
74	0x3d9c240f	0.07624065
75	0xbe12b55e	-0.14326999
76	0x3d697c90	0.057003558
77	0x3dcd8cfa	0.10036655
78	0x3dd1a75a	0.10236998
79	0xbddd00b2	-0.10791148
80	0x3db6fba7	0.089347176
81	0x3da4b75a	0.08042784
82	0x3d3a8b3b	0.045542937
83	0x3c2b0b34	0.010439683
84	0x3d946a3e	0.072468266
85	0xbd9a780e	-0.0754243
86	0xbdc456d0	-0.09586871
87	0xbdeaac8d	-0.11458693
88	0xbe028af0	-0.12748313
89	0x3e0d98e9	0.13827862
90	0x3bba6400	0.0056881905
91	0xbc99425c	-0.0187084
92	0xbb5cabf0	-0.0033671819
93	0xbcd30ce2	-0.025762979
94	0x3d10333c	0.03520511
95	0xbdb5951a	-0.088663295
96	0x3e0bf410	0.13667321
97	0x3d7986a4	0.06091942
98	0xbd0c6dce	-0.034284405
99	0x3dafcf20	0.08584428
100	0xbd964c21	-0.07338739
101	0xbd8174c3	-0.06321099
102	0xbd9163f7	-0.07099145
103	0xbe00836b	-0.12550132
104	0xbd714040	-0.058899164
105	0xbd4aa291	-0.04947144
106	0x3ad279fc	0.0016058083
107	0x3c24f510	0.010068193
108	0x3ba6b172	0.005087071
109	0xbd34705d	-0.04405247
110	0xbda8e93d	-0.08247612
111	0x3d08369e	0.033255212
112	0x3e0a695f	0.13516758
113	0x3dfbfb2a	0.12303765
114	0x3e0cd849	0.13754381
115	0xbda35dde	-0.07976888
116	0xbdc5a3c0	-0.096503735
117	0xbde92f71	-0.11386002
118	0x3d9968fd	0.07490728
119	0xbdcda0cb	-0.100404344
120	0xbd813388	-0.06308657
121	0xbe0e0812	-0.13870266
122	0x3da168fe	0.07881354
123	0xbd460ff7	-0.04835507
124	0x3dbd2303	0.092351936
125	0xbd25e53f	-0.04050183
126	0x3dc6e34f	0.097113244
127	0xbe02daf5	-0.12778838
128	0xbdcfc5ac	-0.10145125
129	0xbd594654	-0.053045586
130	0xbc97e382	-0.018541101
131	0x3df9d2da	0.1219842
132	0xbd3bb3b6	-0.045825683
133	0xbdf55a18	-0.11980075
134	0x3cf0dc60	0.029401958
135	0x3dc479e2	0.0959356
136	0x3cdda548	0.027056351
137	0xbd7bfa65	-0.06151809
138	0xbd2bdb52	-0.041957207
139	0x3dd30990	0.10304558
140	0xbde2dfb3	-0.110778235
141	0xbdba2e96	-0.09090917
142	0xbcb6c974	-0.022312857
143	0xbbce3687	-0.0062931213
144	0xbba25da0	-0.0049550086
145	0x3da8f3e7	0.08249646
146	0xbdbf4113	-0.09338584
147	0xbd4f5c50	-0.050625145
148	0xbdb8ff50	-0.09033072
149	0x3d1698b1	0.03676671
150	0x3cd31cae	0.025770511
151	0x3c902cc0	0.017599463
152	0x3d7c7e68	0.061643988
153	0x3e06dfe5	0.13171346
154	0xbb7eefc0	-0.0038900226
155	0x3c8cece5	0.017202804
156	0xbdf6bb24	-0.12047413
157	0xbdc646f4	-0.09681502
158	0xbda33b97	-0.0797035
159	0x3da6c57c	0.08143136
160	0xbc8b6862	-0.017017547
161	0x3d8724eb	0.065988384
162	0x3d8b9c26	0.06816892
163	0x3c0c0d10	0.008548036
164	0xbdf09fb3	-0.1174921
165	0x3d6da944	0.058022752
166	0xbd35a7ba	-0.04434941
167	0xbd5a37bc	-0.05327581
168	0x3e1a3ad5	0.15061505
169	0xbdadd3d5	-0.084876694
170	0xbd988b4d	-0.074484445
171	0x3e03229d	0.12806173
172	0x3e0e07db	0.13870184
173	0x3e02cfd7	0.12774597
174	0xbb872b16	-0.0041250093
175	0x3dbad229	0.09122116
176	0xbb75ff52	-0.0037536216
177	0xbd645cec	-0.05575268
178	0x3d98ce78	0.07461256
179	0x3dc1760a	0.09446342
180	0xbe0ad445	-0.13557537
181	0xbdf16837	-0.117874555
182	0xbcd52fb8	-0.02602373
183	0xbe082f2c	-0.13299245
184	0xbc33b770	-0.010969028
185	0xbd1a1d14	-0.037625387
186	0x3a3bb700	0.0007160753
187	0x3e0460eb	0.12927596
188	0x3d87292f	0.06599652
189	0x3a6d3a00	0.0009049475
190	0x3dd98383	0.10620787
191	0x3c149c60	0.009070486
192	0x3dbb631c	0.09149763
193	0x3d5bb535	0.05363961
194	0xbd9e6784	-0.07734588
195	0x3dc9ce57	0.09853809
196	0xbd8379c8	-0.06419712
197	0x3e06b58d	0.13155194
198	0x3bc41e40	0.0059850514
199	0xbd61b45c	-0.055103645
200	0x3d5eef17	0.054427233
201	0x3dc585c2	0.09644653
202	0xbdef91c0	-0.116977215
203	0xbde109ba	-0.10988183
204	0x3dea81b2	0.11450519
205	0xbd3d56f4	-0.046225503
206	0xbde23bc3	-0.11046555
207	0xbd4b0756	-0.049567543
208	0x3dd3326c	0.103123516
209	0x3d657498	0.056019396
210	0xbc202191	-0.009773628
211	0x3d8e70a3	0.069550775
212	0xbde42fd6	-0.111419365
213	0x3d752668	0.05985108
214	0x3df03232	0.11728324
215	0x3d5e22a0	0.05423224
216	0x3dea4fa6	0.11440973
217	0xbd9ba918	-0.076006114
218	0xbca41601	-0.020030024
219	0xbdc58f71	-0.096465
220	0xbd1e533e	-0.038653605
221	0xbde7e331	-0.1132263
222	0xbcf52de0	-0.029929101
223	0xbd61be6c	-0.05511324
224	0xbc3d876f	-0.011567934
225	0xbdd104bd	-0.10205982
226	0x3c3da0e0	0.011574
227	0xbd3b1f52	-0.045684166
228	0x3d4a6c60	0.04941976
229	0xbcdd7890	-0.027035028
230	0xbe0c5acb	-0.1370651
231	0x3cca45c0	0.024691463
232	0x3b4fb918	0.0031696018
233	0xbddf7aae	-0.10912071
234	0x3e039be9	0.12852444
235	0x3dac770a	0.084211424
236	0xbe0af201	-0.1356888
237	0x3d91dced	0.071222164
238	0xbdb41186	-0.08792405
239	0x3cfa8250	0.030579716
240	0xbe268d54	-0.1626485
241	0xbd55043c	-0.05200599
242	0x3dd28811	0.10279859
243	0x3cd832a6	0.026391339
244	0xbdd565f1	-0.104198344
245	0x3c2f38c3	0.010694685
246	0xbe0948e5	-0.13406713
247	0x3df0107a	0.11721893
248	0xbdc3094a	-0.09523256
249	0xbdc5ca1a	-0.096576884
250	0x3e261622	0.1621938
251	0xbcad009c	-0.021118455
252	0x3d8d1714	0.068891674
253	0x3d6c32d8	0.057665676
254	0xbd3076be	-0.04308199
255	0x3d85342d	0.06504092

lstm.bias_ih_l0 f4 [200]
0	0xbdb2210a	-0.08697708
1	0x3dc1423f	0.094364636
2	0x3defb901	0.117052086
3	0x3b8c52d9	0.004282337
4	0x3e0aad4a	0.13542667
5	0xbdfc0d8b	-0.123072706
6	0x3d37aec2	0.044844396
7	0x3da66198	0.08124083
8	0x3e1d6435	0.15370257
9	0xbe055a50	-0.13022733
10	0xbd9c4107	-0.076295905
11	0xbd8545c5	-0.06507448
12	0x3dd30224	0.10303143
13	0xbd978680	-0.07398701
14	0x3e038647	0.12844191
15	0x3e1ab0be	0.15106484
16	0xbc825d83	-0.01591373
17	0xbca65af1	-0.020307036
18	0xbdf62978	-0.12019628
19	0x3dee6560	0.116404295
20	0xbd280dba	-0.041028716
21	0x3c0d760c	0.008634102
22	0xbd3172de	-0.043322437
23	0x3da0c65c	0.07850334
24	0xbca88de6	-0.020575475
25	0xbdcd1275	-0.10013286
26	0x3cb921c4	0.022599109
27	0x3d35e56b	0.044408243
28	0x3da0bce0	0.07848525
29	0xbd7298ce	-0.059227757
30	0xbd2c772b	-0.042105835
31	0x3dc7d134	0.09756699
32	0x3dd90761	0.105971105
33	0xbdadd3e4	-0.084876806
34	0xbdab461c	-0.08362982
35	0x3c6fd113	0.0146372495
36	0xbd6503ee	-0.05591195
37	0xbdeb37a4	-0.11485222
38	0x3dd17784	0.10227874
39	0xbd9b15db	-0.07572528
40	0xbc9ac3a6	-0.01889212
41	0xbdc2fc5e	-0.095207915
42	0xbd5ac3f0	-0.053409517
43	0x3dd0c5f3	0.10194006
44	0xbce420ea	-0.027847726
45	0xbdabe6e4	-0.08393648
46	0x3dccd674	0.10001841
47	0x3c7b365b	0.015332784
48	0x3e16b6bb	0.14718144
49	0xbd677d90	-0.05651623
50	0xbe23101b	-0.15924112
51	0x3d74a578	0.059728116
52	0xbd302f8f	-0.043014105
53	0x3d7e8930	0.06214255
54	0xbdfcc30b	-0.12341889
55	0x3e1d18b5	0.15341456
56	0x3d1b89bb	0.037973147
57	0xbc402c37	-0.011729292
58	0x3dcf2d85	0.10116104
59	0xbd12836a	-0.035769857
60	0x3cdeab84	0.027181394
61	0xbc814d80	-0.015784025
62	0x3c6fd1b1	0.014637397
63	0x3aa570a9	0.0012622076
64	0xbdca29b8	-0.098712385
65	0xbd9b71fe	-0.07590102
66	0x3c7dba1b	0.0154862655
67	0xbd5dc60e	-0.054143958
68	0xbddaae37	-0.1067776
69	0xbd7aeb64	-0.061259642
70	0x3d468687	0.04846814
71	0xbd16edc1	-0.036847834
72	0xbd877b9b	-0.06615373
73	0x3c1f8b92	0.009737866
74	0x3d870627	0.0659297
75	0x3d457b76	0.048213445
76	0x3dfb1ee0	0.12261748
77	0xbd80f839	-0.06297345
78	0xbd443112	-0.04789836
79	0xbdd94fc8	-0.1061092
80	0xbe2021ff	-0.15637968
81	0x3dba2c16	0.0909044
82	0xbb05e31f	-0.0020429564
83	0x3deebec0	0.116574764
84	0x3d19b460	0.037525535
85	0xbd141310	-0.036150992
86	0xbd55bc71	-0.052181665
87	0xbd5a1f9b	-0.053252798
88	0xbe0c0f86	-0.13677797
89	0xbe099044	-0.13433939
90	0xbdc82b50	-0.09773886
91	0x3d8a2866	0.06745987
92	0x3daa9ff4	0.0833129
93	0x3cbe4012	0.02322391
94	0x3d0dd158	0.034623474
95	0x3d61f7ed	0.05516808
96	0xbd610762	-0.05493868
97	0xbd46fa04	-0.048578277
98	0xbc85349a	-0.016260434
99	0xbdb4ff8d	-0.08837805
100	0xbd9c25bf	-0.07624387
101	0xbd746d75	-0.0596747
102	0xbbeffd88	-0.0073239245
103	0x3dc17990	0.09447014
104	0xbc69506c	-0.0142403655
105	0x3e0a3e0d	0.13500233
106	0x3cad2a74	0.021138407
107	0x3e090ae3	0.13383059
108	0xbe1f70ce	-0.15570375
109	0x3dc25a52	0.094898835
110	0xbe1a59f9	-0.15073384
111	0x3e14a19d	0.14514776
112	0x3df1f2bd	0.11813877
113	0xbb5f4079	-0.0034065528
114	0x3dd6dee2	0.1049173
115	0x3d03a1aa	0.032136597
116	0x3d2427b0	0.04007691
117	0xbd06c776	-0.032905065
118	0x3deeb3e2	0.11655404
119	0x3dd402b2	0.103520766
120	0xbd5839bb	-0.05278943
121	0x3e1510dc	0.14557213
122	0x3d8ab04e	0.06771909
123	0x3d721d63	0.059110057
124	0x3bc75b50	0.0060838833
125	0x3ddb4b4b	0.1070772
126	0x3df586f7	0.11988633
127	0xbcfa8df4	-0.030585267
128	0x3d17d861	0.03707159
129	0x3d33a254	0.04385598
130	0xbda7c9c3	-0.0819278
131	0xbde19111	-0.11013997
132	0x3e058b48	0.13041413
133	0x3de59255	0.11209551
134	0xbe124ff9	-0.1428832
135	0x3d46ed73	0.048566293
136	0xbdd03869	-0.101670094
137	0xbd614714	-0.054999426
138	0x3da3e928	0.080034554
139	0xbdcf11a2	-0.10110785
140	0x3e16925d	0.1470427
141	0x3e0c7f3b	0.1372041
142	0xbd8bc48a	-0.06824596
143	0xbdc026a2	-0.093823686
144	0xbdeeb8a4	-0.11656311
145	0x3cd44488	0.025911584
146	0x3d59bac0	0.053156614
147	0xbd98a802	-0.0745392
148	0x3c934692	0.017977986
149	0x3e19f710	0.15035653
150	0x3b943f3f	0.004524141
151	0xbde4a243	-0.111637615
152	0x3df3a732	0.11897124
153	0xbde53e3c	-0.11193511
154	0xbcd9e59d	-0.026598746
155	0x3db32643	0.08747532
156	0x3c3101eb	0.01080368
157	0xbd998f0b	-0.074979864
158	0x3c8b3da6	0.01699717
159	0xbe097de0	-0.13426924
160	0xbdc0df08	-0.0941754
161	0xbd84b95a	-0.064806655
162	0x3afca392	0.0019274822
163	0xbc74118e	-0.0148967635
164	0x3e163239	0.14667596
165	0xbd82d2b5	-0.063878454
166	0x3d66a744	0.05631186
167	0x3dbf89eb	0.09352478
168	0x3e0d7c14	0.13816863
169	0x3dcf1d27	0.10112982
170	0x3c922c21	0.017843308
171	0xbdb15e05	-0.08660511
172	0x3d525b99	0.051356886
173	0xbd9e797d	-0.07738016
174	0x3c5383e4	0.012909863
175	0x3d834f80	0.06411648
176	0xbdfdeb95	-0.12398449
177	0x3d2c1f9a	0.042022325
178	0xbca07830	-0.01958856
179	0xbcb1ba3e	-0.021695253
180	0x3dbe4312	0.092901364
181	0xbd9fb2db	-0.07797786
182	0xbe1d687a	-0.15371886
183	0xbc4782f0	-0.012177214
184	0x3d9469ba	0.07246728
185	0xbd867994	-0.06566158
186	0x3ddb9d6d	0.10723386
187	0x3dde5edb	0.10857936
188	0xbd6eb2cc	-0.058275983
189	0xbde9af1c	-0.114103526
190	0xbcfe6867	-0.031055642
191	0xbc0294ad	-0.007970017
192	0xbbc2f282	-0.0059493193
193	0x3e1050a8	0.14093268
194	0xbbfa4557	-0.0076376605
195	0x3df639d9	0.12022752
196	0x3c9c465c	0.019076519
197	0x3d41a186	0.04727318
198	0xbcb9da00	-0.022686958
199	0xbe09fe79	-0.1347598

lstm.bias_hh_l0 f4 [200]
0	0x3d740ae6	0.059580706
1	0x3d962685	0.07331566
2	0xbdbb171a	-0.09135266
3	0xbd88ef7e	-0.066863045
4	0x3e110ea0	0.14165735
5	0x3e124d97	0.1428741
6	0x3e0003df	0.12501477
7	0x3d9b9ccc	0.07598266
8	0xbc053f5b	-0.008132781
9	0xbe00c307	-0.12574397
10	0xbd98279a	-0.074294284
11	0x3e06099c	0.13089603
12	0xbdd8aae1	-0.105794676
13	0xbdeedc5a	-0.116631225
14	0x3c97e231	0.018540474
15	0xbcffc589	-0.031222122
16	0x3d2fb422	0.042896397
17	0x3d861423	0.065468095
18	0x3e04d403	0.12971501
19	0xbbb16b3a	-0.0054143937
20	0x3cee2992	0.029072557
21	0x3cd3aef5	0.025840262
22	0xbdb5893a	-0.088640645
23	0xbc6860ae	-0.0141832065
24	0xbdf1fb59	-0.11815519
25	0x3d289931	0.04116172
26	0xbcb80d56	-0.022467297
27	0x3d91d50c	0.071207136
28	0x3e0c96ba	0.13729373
29	0xbb89fb48	-0.0042108633
30	0x3de5c5ec	0.11219391
31	0xbd317bdf	-0.043331023
32	0xbd464f9b	-0.04841576
33	0xb89f96e2	-7.609815e-05
34	0x3de691a2	0.11258246
35	0xbdeb97ce	-0.11503564
36	0x3db6b772	0.08921708
37	0xbd96b3cd	-0.07358513
38	0xbde0e8a2	-0.10981871
39	0xbd00d596	-0.03145369
40	0xbd3e32a2	-0.046435006
41	0x3d70fef7	0.058836903
42	0xbd864de8	-0.06557828
43	0xbc82a448	-0.015947476
44	0x3e002a10	0.12516046
45	0x3dc5119f	0.096225016
46	0x3cf8f703	0.030391222
47	0xbdd7e72e	-0.10542141
48	0xbd94dbd0	-0.072684884
49	0x3d2c896e	0.04212325
50	0x3daca822	0.08430506
51	0xbc80d60c	-0.015727066
52	0x3d1652c3	0.03670002
53	0xbd1073c2	-0.035266645
54	0xbe053e3c	-0.13012022
55	0x3ca63365	0.020288179
56	0x3d9a81be	0.075442776
57	0x3d02bd27	0.03191867
58	0xbd2afa55	-0.04174264
59	0xbdf94877	-0.12172025
60	0xbce8f2a6	-0.028436016
61	0x3e01b0cc	0.12665099
62	0xbe007146	-0.1254321
63	0x3dd101eb	0.10205444
64	0x3de07530	0.10959852
65	0x3e0a467b	0.13503449
66	0xbda32972	-0.079668894
67	0xbe0a2be1	-0.13493301
68	0xbc0eccbc	-0.008715805
69	0xbdabafcc	-0.0838314
70	0xbe175410	-0.14778161
71	0xbcdc9e78	-0.026931033
72	0xbd528f56	-0.051406227
73	0x3d872cd7	0.066003494
74	0x3d834e7a	0.064114526
75	0xba568bac	-0.0008184265
76	0x3d93f516	0.07224481
77	0xbd8ff197	-0.070285015
78	0x3dbfe824	0.09370449
79	0x3ce4e368	0.027940467
80	0xbe16bfc9	-0.14721598
81	0x3e040467	0.12892304
82	0xbbf8b0d3	-0.0075894385
83	0x3d723962	0.059136756
84	0xbcb7e938	-0.022450075
85	0x3df41692	0.119183674
86	0x3ceb2bb4	0.028707363
87	0xbc825eda	-0.01591437
88	0x3cc0a2b7	0.023515088
89	0x3d4aef90	0.04954487
90	0x3d7f5b2f	0.06234282
91	0xbe0ab87e	-0.1354694
92	0x3e1ae4f5	0.15126403
93	0x3d0b3c95	0.033993322
94	0x3ddcfe7c	0.107907265
95	0xbd550f4f	-0.052016553
96	0x3dfd9f66	0.123839185
97	0xbe13547e	-0.143877
98	0xbde6ccee	-0.11269556
99	0xbd5389f4	-0.051645234
100	0xbd71414d	-0.058900166
101	0xbe0df41a	-0.13862649
102	0x3d4c3225	0.04985251
103	0x3c25459f	0.0100874
104	0x3d433dde	0.047666423
105	0x3d81af6d	0.06332288
106	0xbd9a6e79	-0.07540602
107	0xbda1f55e	-0.07908128
108	0xbc1dfc4b	-0.009642671
109	0x3de392ba	0.1111197
110	0x3cc9b144	0.02462066
111	0xbdc5e96e	-0.09663664
112	0x3d8b9978	0.06816381
113	0x3d2c14e4	0.04201211
114	0x3ddb728e	0.10715209
115	0xbda845b1	-0.082164176
116	0xbd1bbd91	-0.03802258
117	0x3da1408e	0.07873641
118	0x3dcfd090	0.10147202
119	0xbc42ae73	-0.011882412
120	0x3db17001	0.08663941
121	0xbd586283	-0.052828323
122	0xbdba7bb0	-0.09105623
123	0xbdf1d13c	-0.118074864
124	0x3d4d53c4	0.050128713
125	0xbde38f3e	-0.11111306
126	0x3dd539db	0.10411426
127	0x3d5261c9	0.051362786
128	0x3dabcab1	0.0838827
129	0x3d857093	0.065156125
130	0xbda050db	-0.07827922
131	0x3dcf077a	0.10108848
132	0x3c9395b6	0.018015724
133	0x3cffe5ce	0.03123751
134	0x3cedce08	0.029028907
135	0xbde98cbf	-0.11403798
136	0x3ddc85f9	0.10767741
137	0xbd09f696	-0.03368243
138	0xbcc7d8d7	-0.02439539
139	0x3cd7efd5	0.026359478
140	0x3e1999e7	0.15000115
141	0xbac1701d	-0.0014758144
142	0x3e07092b	0.13187091
143	0x3bff4278	0.007789906
144	0xbc97a981	-0.018513443
145	0xbdc6ac2c	-0.09700808
146	0x3dc7fd96	0.097651646
147	0x3cf4fb10	0.029904872
148	0x3ded28b5	0.1158003
149	0x3deda70a	0.11604126
150	0x3ccc8b15	0.024968663
151	0x3d6f1021	0.05836499
152	0xbdedaa57	-0.11604755
153	0xbd96de1a	-0.07366581
154	0x3def0e91	0.116727
155	0xbd2ed6aa	-0.04268519
156	0xbd64da9f	-0.055872556
157	0x3d9f9309	0.077917166
158	0xbda2a76a	-0.07942088
159	0xba513ad6	-0.00079814845
160	0x3df03305	0.11728481
161	0xbde87a06	-0.11351399
162	0xbdd23798	-0.1026451
163	0xbb2d8730	-0.0026478283
164	0x3e114d95	0.14189751
165	0x3d2b5e37	0.041837897
166	0x3db2d680	0.08732319
167	0xbc966b5c	-0.01836174
168	0xbda9d696	-0.08292882
169	0xbd5e3dae	-0.05425804
170	0x3d8e6a93	0.06953921
171	0x3d387460	0.04503286
172	0x3df1bcba	0.11803575
173	0x3d781d3b	0.06057475
174	0xbda9fc7d	-0.083001114
175	0xbd8be47c	-0.06830689
176	0xbd11189c	-0.03542386
177	0x3c7759b9	0.015097075
178	0xbd7a8325	-0.061160225
179	0xbdae8125	-0.08520726
180	0xbdf23e72	-0.11828317
181	0x3dca32f0	0.09872997
182	0x3d9e7a04	0.077381164
183	0xba9cb9e3	-0.0011957254
184	0xbd8d5027	-0.069000535
185	0x3d1d6b2a	0.038432278
186	0xba32a412	-0.00068146095
187	0x3ddd32b9	0.1080069
188	0xbe199b5a	-0.15000668
189	0x3c842bbf	0.016134141
190	0xbc9da18f	-0.019242076
191	0xbda51479	-0.080605455
192	0x3cf476cd	0.029841805
193	0x3d6d8163	0.05798472
194	0xbd8c26e3	-0.068433546
195	0x3dacb111	0.0843221
196	0x3c766c74	0.015040506
197	0xbdf2b2f9	-0.118505426
198	0xbcb391e3	-0.02192015
199	0xbd9c3918	-0.07628077

fc.weight f4 [1, 50]
0	0xbcd8d84e	-0.02647033
1	0xbc95b65f	-0.018275438
2	0xbdd7a6a0	-0.10529828
3	0xbe21fb84	-0.15818602
4	0xbcc89e5f	-0.02448958
5	0x3dab753f	0.08371972
6	0xbddf8017	-0.10913103
7	0x3e1c4592	0.15260914
8	0xbd9ca6d9	-0.07649011
9	0xbe084fdb	-0.13311712
10	0xbdcbd5ea	-0.0995291
11	0x3ddf9e15	0.10918824
12	0x3e1676e8	0.14693797
13	0xbbd3585d	-0.0064497427
14	0x3c8a3c23	0.016874379
15	0x3e160e6d	0.1465394
16	0x3c7c55c8	0.015401311
17	0x3dea4d6b	0.114405476
18	0x3d6fe85d	0.05857121
19	0x3d9a537e	0.07535456
20	0xbc9beda2	-0.01903421
21	0x3d39cf83	0.045363914
22	0xbdc832f0	-0.097753406
23	0x3d2edd24	0.042691365
24	0x3dd0d148	0.10196167
25	0xbd83b17a	-0.06430335
26	0x3c83bb8b	0.016080638
27	0xbe1e6e37	-0.15471731
28	0x3e0562bb	0.13025944
29	0x3e2098f9	0.15683354
30	0xbab0ca18	-0.0013487963
31	0xbda112ce	-0.07864915
32	0x3db6d306	0.08926968
33	0xbdffb97a	-0.12486549
34	0xbdc79c1a	-0.09746571
35	0xbd989b42	-0.07451488
36	0x3d989f09	0.074522085
37	0x3db75920	0.08952546
38	0xbce44f9c	-0.027869992
39	0xbe17296c	-0.14761895
40	0x3d671e04	0.05642511
41	0x3d804f3d	0.062651135
42	0x3d814282	0.063115135
43	0x3e0001c6	0.12500677
44	0xbd57b6b6	-0.05266448
45	0xbd405468	-0.046955496
46	0xbd46e851	-0.048561398
47	0xbddc85fe	-0.107677445
48	0xbd42dab9	-0.04757187
49	0x39ce8360	0.00039389264
